v2/road_segmentation/fastscnn_model/fastscnn_road.onnx (onnx, 241335 bytes, 12 tensors)

encoder.0.0.weight_bias f4 [32]
000000 6d 0e 34 bd 10 14 06 3f ad 2b bc 3e 36 15 9b 3e
       -0.04395907 0.5237436 0.36752072 0.3028962
000010 03 0f 8f 3f d4 5f 0e 3f d7 0f f9 3e 7f 3c 8d 3e
       1.1176456 0.5561497 0.48644897 0.27585217
000020 07 d9 1c 3f ab 40 5a bc e0 9c 3f 3c 0a ef 53 3f
       0.6126866 -0.013321082 0.011695117 0.8278662
000030 1c aa e8 3e 82 c6 35 bf 72 f0 4e bc 90 cb a8 bb
       0.45442283 -0.71006024 -0.012630569 -0.0051512197
000040 88 77 65 bd 78 34 5b bc 38 bc 87 3e ce 89 89 3e
       -0.056022197 -0.013379209 0.26510787 0.2686295
000050 16 f5 0f 3e ee 69 22 3f 00 bb 7e 3b 4a 14 9e bc
       0.14058337 0.63442886 0.0038868785 -0.019296784
000060 00 57 15 bb 62 38 fd 3e e4 0a 95 3d 20 4c 62 3f
       -0.0022787452 0.4945708 0.07277468 0.8839741
000070 76 bf 81 3e b4 e7 5e 3e 78 00 c0 3d a8 40 e0 3d
       0.25341386 0.21768075 0.093750894 0.10949832

encoder.1.conv.0.0.weight_bias f4 [32]
000000 ee e8 42 bc 31 1f 6f 3f a0 80 a0 3d 57 b1 d7 3e
       -0.011896355 0.9340697 0.07837033 0.42127487
000010 a1 dc 85 3e a3 4b 4f 3f 07 87 60 3f 52 41 d0 3e
       0.2614489 0.8097479 0.87706035 0.40674835
000020 1f f6 70 40 e0 d6 98 bb 81 67 b0 3e 74 a8 b0 3e
       3.765022 -0.004664287 0.34453967 0.3450352
000030 97 ae 50 3f c5 57 d1 be f1 e6 b9 bb b3 a6 b5 bb
       0.815164 -0.40887275 -0.0056732823 -0.0055435537
000040 bc 7c 08 3c 43 f6 5e 3c 9e e5 93 bc 04 ad 9c 3d
       0.00833052 0.013608518 -0.018053826 0.076501876
000050 d0 a5 aa be e6 3e cb 3f 10 bf 67 3f 54 80 a0 3a
       -0.3332963 1.587857 0.90525913 0.0012245276
000060 ea b1 40 3f 00 c5 4c be 7a b3 ca be 8b a5 61 3f
       0.75271475 -0.19997025 -0.39590055 0.88143224
000070 07 51 32 3f 0d e2 b6 3e e3 cd 78 3f bd ec 53 be
       0.6965489 0.35719338 0.9718916 -0.20695777

encoder.1.conv.1.weight_bias f4 [16]
000000 72 f0 13 c0 3f e6 cf 3e 23 3b 9d bf a8 b7 94 3f
       -2.3115506 0.4060535 -1.2283672 1.1618547
000010 a3 e3 c5 bd 22 c7 fa be 5f 1e 30 bf 30 75 f7 bf
       -0.09662559 -0.4898005 -0.6879634 -1.9332638
000020 e8 46 56 bf b7 0d d4 bf 41 21 be 3f fb 7d d3 be
       -0.83701944 -1.6566685 1.4853898 -0.41307053
000030 ad 05 40 bf a0 9a 2b be 2a 65 dc 3f 85 f8 aa 3f
       -0.7500866 -0.16758204 1.7218373 1.3357092

encoder.2.conv.2.weight_bias f4 [24]
000000 94 6b 93 bf 0b 87 19 3f 99 d4 3d bf be 83 5e be
       -1.1517205 0.59971684 -0.74152523 -0.21729943
000010 45 fd dd bd 0d f2 2c bf bf e5 e5 be 9e f0 73 3e
       -0.10839323 -0.6755684 -0.44901845 0.23822257
000020 f3 bf 69 be 70 03 d1 bc d1 9c 0e 3b f3 7f e9 3e
       -0.22827129 -0.025514334 0.002176095 0.4560543
000030 77 0d 25 3e 75 74 e6 3f d5 70 af 3f ee 82 43 3f
       0.16118418 1.800429 1.3706309 0.7637166
000040 bf 70 74 3e db d5 27 be 84 ca f8 be 8a 65 0b 3e
       0.23871134 -0.16390173 -0.48592007 0.13612953
000050 f3 ef 9c 3e a6 a2 96 3e e5 ab 16 3e ee ae 0a 3e
       0.30651817 0.29420966 0.1471401 0.13543293

encoder.3.conv.2.weight_bias f4 [24]
000000 75 77 9b bf a3 cc 81 bf ec 77 5c 3d db 35 14 be
       -1.214583 -1.0140575 0.053825304 -0.14473669
000010 b1 59 a5 bf c4 cb 8d 3f 66 9f 46 3f 63 cb d0 3d
       -1.2917997 1.1077809 0.7758697 0.10195043
000020 b5 19 b1 3d 5a 3c e5 bd 01 a4 0b c0 bd 3e 0a bf
       0.08647481 -0.11193152 -2.181885 -0.5400198
000030 e8 47 2c 3f 07 78 a0 bf 15 3c 1c 3e fb 63 d2 be
       0.6729722 -1.253663 0.15257294 -0.41091904
000040 74 ab d3 3e f8 90 ff be b8 e0 02 bf 05 72 af 3e
       0.41341746 -0.4991529 -0.51124144 0.34266677
000050 ed 57 7a 3f 22 15 69 3f 62 50 00 c0 59 6c 9c 3f
       0.97790414 0.9104787 -2.0049062 1.2220565

encoder.4.conv.2.weight_bias f4 [32]
000000 5a 1d 6d 3f f0 53 17 3f 6e 7f 34 bf b2 5b 25 3f
       0.9262291 0.59112453 -0.7050694 0.6459304
000010 d1 1d 3c 3e 6f ab c3 bf d4 64 86 be e2 82 4a be
       0.18370749 -1.5286692 -0.262488 -0.1977649
000020 49 e1 03 3d 09 53 ef bf 4a 7e 40 3f 32 f7 93 3f
       0.03219727 -1.8697215 0.751927 1.1559813
000030 21 0c 2d 3f c0 d1 7d 3f 37 7e 39 3d 2f 68 19 bf
       0.6759663 0.9914818 0.045286383 -0.59924597
000040 58 d7 32 3f 11 79 bc bd dd ad 14 3f 4e 57 a9 be
       0.6985984 -0.09202779 0.58077794 -0.3307442
000050 19 0d 6d be 73 bb ea 3e ac 0b f8 be eb c0 ba 3e
       -0.23149528 0.45846137 -0.48446405 0.3647531
000060 bb aa 6c bf b1 22 87 3f fe 58 25 be ba b0 91 bf
       -0.92448014 1.0557462 -0.16147229 -1.1382058
000070 62 40 af 3e 42 63 7e bf 9f 44 3f bf b6 e2 3d be
       0.34228808 -0.99370205 -0.7471408 -0.18543515

encoder.5.conv.2.weight_bias f4 [32]
000000 46 3c 9a 3d 86 dd 53 3e 85 f4 d8 be 0d c3 26 3f
       0.075310275 0.20689973 -0.42374054 0.65141374
000010 a4 fc 61 be 70 7e 23 bd c9 9c 19 3e c4 4c b2 be
       -0.22069031 -0.039915502 0.15001215 -0.34824193
000020 de 14 13 bf 06 06 b5 3d 19 75 9e 3d 5f db 39 be
       -0.57453716 0.088390395 0.07737178 -0.1815009
000030 ca 0e b5 be 14 31 e2 be 4e 02 13 3d 18 32 bd be
       -0.35362846 -0.4417807 0.03589087 -0.3695228
000040 ee 27 92 3e b7 44 2c be 81 51 11 3e 79 45 f8 3e
       0.2854609 -0.16823088 0.14191248 0.48490503
000050 ef 34 25 3f 70 0e 93 be 3e ad 4f 3e 5f 64 bc be
       0.64533895 -0.28721952 0.2028093 -0.36795327
000060 e3 72 b3 3d de 18 1c be e9 50 ea be bf 01 fb 3e
       0.08762147 -0.15243861 -0.45764855 0.4902477
000070 b2 b0 e6 3e a1 c0 1c be 7f 24 48 be 9c 7c 17 3e
       0.45056683 -0.15307857 -0.19545172 0.14793628

encoder.6.conv.2.weight_bias f4 [32]
000000 01 36 c9 be c1 53 68 3d 30 7b 88 be 54 62 59 3e
       -0.39299014 0.0567205 -0.26656485 0.21228915
000010 75 a2 90 3e d2 d7 8a 3e 0a 12 c9 be ee 06 3d 3e
       0.28248945 0.27117783 -0.39271575 0.18459675
000020 2f 68 20 bd e4 42 25 3f dd bb 6f 3e 30 3f 20 3e
       -0.039161857 0.6455519 0.23411508 0.15649104
000030 27 37 49 3e 01 06 68 3e 32 9b 90 3e 38 c0 0f bf
       0.19649945 0.2265854 0.28243405 -0.5615268
000040 75 36 2b bf c5 86 02 bf a9 e5 c2 3d c7 69 5e 3f
       -0.6687997 -0.5098689 0.095164604 0.86880153
000050 ab 02 9f 3e 24 62 43 3e 93 c0 92 bd 2c 38 83 3e
       0.31056723 0.19080406 -0.07165637 0.25628793
000060 a2 9d b7 bd 01 88 2a bf 9b 86 d2 be 83 09 dc 3e
       -0.08965613 -0.66613775 -0.4111832 0.42976007
000070 e6 4b 94 be 5f 66 02 bf 94 7b ed 3e a0 8f a0 be
       -0.28964156 -0.50937456 0.46383345 -0.31359577

encoder.7.conv.2.weight_bias f4 [64]
000000 12 47 02 bf 98 b0 27 be 89 9c 3d bf e2 8a a3 bd
       -0.50889695 -0.16375959 -0.7406698 -0.07985474
000010 a8 cb e3 be a0 66 d6 bd ab b7 f8 3d 40 85 73 bf
       -0.44491315 -0.10468793 0.12144407 -0.951252
000020 ea 50 59 bd 05 9d f6 3f 14 93 ac bf 57 16 8f 3f
       -0.05305568 1.9266669 -1.3482385 1.1178693
000030 cf 0c 98 3d 99 f4 08 bf 15 33 d5 3e 20 99 04 3e
       0.07424318 -0.53498226 0.41640535 0.12949038
000040 45 ab 74 be 3c c4 a9 be 9e c8 32 be ed 15 a1 be
       -0.23893459 -0.33157527 -0.17459342 -0.3146204
000050 fc b6 4e bd f4 d1 80 bf ed 32 3e 3f 48 6d ed 3e
       -0.050467476 -1.0064073 0.74296457 0.46372437
000060 f5 e0 03 3e 13 9d 3c be 83 1c 4b 3f 59 0d 62 bf
       0.12878783 -0.18419294 0.7934038 -0.88301617
000070 d9 a9 45 3e 0f 84 9e bf 59 e0 1b 3e 6f 04 82 3e
       0.19303073 -1.2384051 0.152223 0.25394008
000080 5f 1e 86 3f 3c fb 0b 3f 54 8d 9b 3e 80 76 c0 bd
       1.0478019 0.5468023 0.30381262 -0.09397602
000090 fb 1c e6 bd d5 d7 39 bd bc 14 91 bf fa df 24 be
       -0.11235996 -0.04537185 -1.1334453 -0.16101065
0000a0 41 a6 a5 3f 64 47 39 3f 4d d4 37 bf ca 31 59 bf
       1.2941362 0.7237456 -0.7180832 -0.848416
0000b0 8b f3 38 bf 49 8f 87 bc 54 d7 4a 3e 8a 30 d2 be
       -0.7224662 -0.016547816 0.19808704 -0.41052657
0000c0 ff 11 5c 3f 05 14 c8 3e 70 86 20 3f 15 d3 4c 3e
       0.8596496 0.39077774 0.62705135 0.20002396
0000d0 ea 6e 9f 3f 72 16 07 3f 10 23 4e 3f bf f0 75 bc
       1.2455723 0.52768624 0.8052225 -0.015011012
0000e0 0f 10 8a 3f 6e 4c a4 bf ac 5a 66 3e de 7d 84 be
       1.0786151 -1.2835824 0.22495526 -0.2587728
0000f0 b8 ae 8c be fc fc fc 3e 7f 98 6a 3f bc 92 22 be
       -0.2747705 0.49411762 0.9163894 -0.15876287

encoder.8.conv.2.weight_bias f4 [64]
000000 4e fd 8c be 8d b6 1f be 22 15 9f 3d 64 69 65 3e
       -0.27537006 -0.15596981 0.07767703 0.22403485
000010 f2 ee 20 be 63 83 c8 3a b8 2d ff 3c 69 d1 e7 be
       -0.1571615 0.0015297945 0.03114973 -0.45276955
000020 ce 03 8e be c4 55 d2 3c 19 b1 78 be 16 41 17 3e
       -0.27737278 0.025675662 -0.24286307 0.14770922
000030 3e 7c b6 3d 21 1b b0 bd 53 17 7a 3d a7 d1 85 3e
       0.08910416 -0.085989244 0.0610574 0.26136515
000040 3e de 8f 3e ba 8f 7c 3d 15 fb 9b 3e 24 9c 95 be
       0.28099245 0.061660506 0.30464998 -0.29220688
000050 41 19 2d be 57 b6 09 bf 3e 4c 66 3c 2a a0 cf 3e
       -0.16904165 -0.53793854 0.0140562635 0.40551883
000060 53 30 12 3e 53 a4 6e be d9 12 62 3f 7d 60 0e be
       0.14276247 -0.23304872 0.8831001 -0.13903995
000070 ab 26 11 3e 9d 54 f7 3d b0 3b bf 3e a4 54 23 3f
       0.14174907 0.120766856 0.37350225 0.63801026
000080 2e a3 e4 bd 77 dd 29 3e aa 80 87 bf 9f e9 c6 be
       -0.111639366 0.16588388 -1.058614 -0.38850114
000090 d4 6d 0d 3f 99 42 7f bd 6b ae 07 3e 24 00 85 be
       0.5524571 -0.06231937 0.13250129 -0.2597667
0000a0 3f e1 e9 bd 2f 4a ab be 05 68 84 3e dc 2a c6 bd
       -0.114199154 -0.33455035 0.2586061 -0.096761435
0000b0 60 02 fc 3e cf 1e e2 3d 06 b6 e1 3b 89 b2 3b 3f
       0.49220562 0.110410325 0.006888154 0.733193
0000c0 4d 3d 26 3e c8 f7 38 3e 5e df b4 bd 50 9b 98 3e
       0.16234322 0.18063271 -0.088316664 0.29805994
0000d0 8c 1b 05 3e 49 08 77 be 75 22 a5 be 87 64 d4 3e
       0.1299879 -0.24124254 -0.3225285 0.41482946
0000e0 4c 6b c2 3e 7b 1d a2 bd 53 df 82 3e 2d 20 2d 3f
       0.37972486 -0.07915779 0.25561008 0.6762722
0000f0 de 55 64 3f 22 c8 0c bf 9f 79 06 bb be 54 86 be
       0.8919352 -0.5499288 -0.002051927 -0.26236528

encoder.9.conv.2.weight_bias f4 [64]
000000 96 f1 8f 3e fd ae 13 3e 78 c9 a1 be 2c 49 1c be
       0.28114003 0.14422221 -0.3159902 -0.15262288
000010 c4 56 85 be 6d b1 91 be d0 88 84 3e 68 d5 a7 3d
       -0.2604276 -0.28455678 0.2588563 0.08195001
000020 67 9f ef be f2 b0 a9 3d cd de 27 3e c9 c6 88 be
       -0.46801302 0.08285703 0.16393586 -0.2671416
000030 b9 6e d2 bd 95 fe 98 be a5 b4 85 3d 33 5a 9a 3e
       -0.10275025 -0.2988173 0.06528596 0.30146942
000040 4f b4 24 3e fd 81 a1 be 34 ad cf 3e 1e ab 61 3d
       0.16084407 -0.31544486 0.4056183 0.05509483
000050 4f 6f 96 3e 8f af f5 3e 51 46 86 3e 03 57 47 bd
       0.29381797 0.47985503 0.26225522 -0.048666965
000060 fe 40 65 3e a3 2b cf bd e4 d3 25 3e 26 7b 9f bc
       0.22388074 -0.10115745 0.16194111 -0.019467901
000070 c2 4c 51 3d fe 0b f6 3b c8 6a ee 3b 69 73 af bd
       0.051098593 0.007508754 0.007275913 -0.085669346
000080 d3 da b5 bc 18 ce d5 be 6f 7a 23 3e bf 22 71 be
       -0.02219907 -0.417588 0.15964673 -0.23548411
000090 2b c9 47 be 71 26 cd be a3 86 0e 3e 56 49 9e 3e
       -0.19510333 -0.4006839 0.13918547 0.30915326
0000a0 4f ae 2e be e8 56 71 be b0 0f 3d 3e 95 cd 49 3e
       -0.17058681 -0.23568308 0.18463016 0.1970733
0000b0 2b 00 31 3e 6d ba 55 3e 15 4d b7 bd f7 49 a2 3e
       0.1728522 0.20871897 -0.08950249 0.31697056
0000c0 4d 60 66 be 2f b7 1e 3c ad f6 23 3d d7 41 ca be
       -0.22497673 0.009687229 0.04003017 -0.39503357
0000d0 f6 5f 84 be bb a1 b2 bd c8 0a 1f bd 1f 3f 66 3c
       -0.25854462 -0.08722254 -0.03882864 0.014053135
0000e0 de 5c 67 3c 4d a1 43 3d ab 4c 43 be de 66 66 be
       0.014121262 0.04776125 -0.19072215 -0.22500178
0000f0 55 e6 6e 3f 88 d4 cf 3e a9 a6 63 3e 49 21 25 be
       0.9332021 0.40591836 0.22231545 -0.16125979

encoder.10.conv.2.weight_bias f4 [64]
000000 fa 95 8c be 7a ab 13 be 98 3b 02 3e b3 9b 00 bf
       -0.27458173 -0.14420882 0.12718046 -0.5023758
000010 c3 e3 13 3f e6 07 ee bd af 72 1b be d8 1b 80 3e
       0.5776941 -0.116226 -0.15180467 0.25021243
000020 37 aa 2c bf 4c 90 14 3f df d8 84 bd 56 a3 e1 be
       -0.6744723 0.5803268 -0.064866774 -0.44069928
000030 c4 7d ed be b3 ba f5 be c4 12 ce be bb 21 7e be
       -0.46385014 -0.47994003 -0.40248692 -0.24817555
000040 5b a1 55 3e f2 2d 1c be d8 c0 96 3e aa a2 29 3e
       0.20862333 -0.15251902 0.29444003 0.16565958
000050 f5 48 ae 3d d9 ae 40 3e 51 fd 11 bf 9d 8f 1d 3e
       0.08510009 0.18816699 -0.57027155 0.15386815
000060 40 ba ee bc 8d e9 bb bd a8 87 a2 3e 56 3c e6 3d
       -0.029141545 -0.09175406 0.31744123 0.11241977
000070 af 98 20 be 7a aa 70 be 0e 4c eb bc ca b5 23 bf
       -0.15683244 -0.23502532 -0.02872279 -0.63949263
000080 30 e3 33 bf bf 9a 69 3e fc fe 93 3e b9 03 67 3d
       -0.70268536 0.22812937 0.28905475 0.056400035
000090 a3 b6 8e bd be e6 14 be 02 5c f2 bd 00 e1 41 3e
       -0.06968429 -0.14541146 -0.11833955 0.18933487
0000a0 4d 85 dc 3e e9 46 49 3b d7 bf c8 ba 2c 60 bb 3d
       0.4307045 0.0030712432 -0.0015315962 0.09149203
0000b0 4c 69 b6 bd 41 15 0c be 67 b8 79 be 71 2f c9 be
       -0.089068025 -0.13679983 -0.2438675 -0.39294007
0000c0 00 4f 5c 3e 3e e5 9f be 2b 3a 22 bd f6 6a ad bc
       0.21514511 -0.31229585 -0.039606255 -0.021169167
0000d0 08 2c ad be 38 60 91 3e 25 48 de 3c ff 86 8e bd
       -0.33822656 0.28393722 0.02713401 -0.06959342
0000e0 41 5f 4e 3e cb b0 97 be 92 0e 4d bf 92 78 a3 be
       0.20153524 -0.2962707 -0.8010036 -0.31927925
0000f0 b3 51 86 3d 1a 27 8b be c3 4f 41 bd 0f ff 2d 3e
       0.06558552 -0.2717827 -0.047195207 0.16991828
